ses_lin_reg_models/linear_model_weights_noprof.npy (npy, 46760 bytes, 1 tensors)

array f8 [5829]
0.0017149995786024713 -0.0002613925789090623 0.02061083772072021 0.01430353652345981 0.0007545229271664087 0.0007693957046541851 0.0013500822264323749 0.0004348596384940295
0.001958574564466662 0.0006644728203262701 -0.00026338885060951027 0.0037073948370251477 0.0007765769853154572 -0.0015392582599751165 -0.0003040088421470491 -0.0005646076081064488
-0.00022822239026917707 -0.0004985329915703166 0.0008220941126280818 0.0003565589251412008 6.222170520215199e-05 0.003473446549145636 -0.00012143834657502622 2.888761932953613e-05
-0.0005165120437149431 0.0006910344981906445 -0.0004003434096522018 -0.00016046537700347628 -0.00016046537700347628 0.0002061303617627593 0.0007147647773204048 -4.844917680960215e-05
0.0007459713890223697 0.0007459713890223697 0.0005789187046055889 0.0006782583161898114 -0.0002613925789090623 0.0015338650278468027 0.0006361861196336472 -0.00041908531159983624
-0.0007240659010454699 -0.0003040088421470491 0.0008609133504174975 0.0006992431365721744 -0.0004779208172791444 -3.919502068550114e-06 0.0003954039276587921 0.0005163852230742961
0.0031503511615640118 0.0031455884967656034 0.0021051355725283196 0.0013936764379066315 -0.0003512983419448464 -0.0005091794580929839 -0.0005134390410257569 0.0006180058631227069
0.0008573963939720349 0.0024687758455254087 -0.00011506973782961134 -0.00026803369347839763 -0.0005921647004563004 0.000586599465811468 -0.00020863208757083965 0.0007941733794711391
-9.585793944863638e-06 -0.00034748391581381025 -0.0007727467197572931 0.0005789187046055889 -0.0001746228762052871 -0.0001746228762052871 0.0007648646348166378 -0.0004172813816044756
-3.7538275840462124e-05 0.00040567430249043626 -0.0009537892063041259 0.0002618324595775195 -0.0004899282112629912 -0.0005594957000830407 0.0005370819052391745 -0.0004960943306496022
-0.0003346452905264585 0.0006996991362380682 -0.00011148611076017024 0.0003788979705746129 0.0007176417408615705 0.0008469226448160067 -0.0002608800955170192 0.00060611900839868
0.0005541212035879406 -0.0008136776195954542 -0.00027889721603736726 -0.0004990461198730612 -0.0005027402851199009 0.0006907921146749537 -0.0003468650276240583 -0.0003086615172086959
-0.0006508186747249476 -0.00014245912966167362 2.67558750823414e-06 0.00018655533795504546 -0.00019084726595751408 0.0004957563582782751 0.000586427344775805 0.0003329405091072332
-0.0009245346176425047 -0.0002461080617000573 0.0015654381345281548 0.0002032138509853941 -0.0002322872541378911 -0.00016046537700347628 -0.0005027402851199009 -0.0003370701583433182
0.0006664324239899633 -0.0002095299006851906 0.0008850403152072636 -0.0003606657123776746 -0.00024049751191041418 -0.0003231489000668446 0.00013809227788063208 0.0003354905579338334
-0.00039355625820493675 -0.0006516524380276268 0.0012412399365413747 0.002600565547404455 -0.00046528900392531073 -0.0005250990269819459 -0.0008194896270402711 0.0006114468711748533
-0.0004732777823436019 0.0002873264133977151 0.0017050928470362977 0.0008469226448160067 0.0009779844249677577 0.001366397616926699 -0.0003699001868127127 0.0008071061013850772
0.0007248702287276764 0.0011904420356143404 0.00041484068448173733 -0.0006871069633554725 -8.365801902208674e-05 0.000927322122155099 -0.00037014361895159546 0.0006923763845782119
0.0007299479759419629 -0.0006821440278685356 0.0001917465119899932 0.002166569428221252 0.012974360303799781 -0.0003082872805542951 0.000839480076134411 0.00020149334364137725
7.940500191376816e-05 -0.0006483801498010116 0.0008940643352135585 0.008456536761103845 0.008046388275878634 0.003569811166154558 0.0011893495827728488 -0.00013101500453388144
-0.0002828077105989844 0.00012609785480089872 0.0004563257864580237 -0.00022822239026917707 -0.0003743980339342989 -0.0003612744006553994 -0.0004609105734403846 0.0005358208147918234
0.004706058504921391 -0.0001861297449335038 0.00048218789276258963 0.0002399670779399628 0.0006371538067410728 0.001553126616977438 -0.0003232007668942848 0.0005588813864560448
-0.00045307416360106654 0.0018944593343928368 0.0005744507842446377 -0.00037514357471354074 0.0013287800506785435 6.686958739390614e-05 0.024036134657140898 0.000528582886126759
0.000537008105708677 0.0009459734482637673 -0.0003002085858800236 -0.0005879914125960026 0.014542988398235313 0.003021094816448693 -0.00038567988233848097 0.0038384063436436313
-4.2744994695206786e-05 0.0005403296969227225 0.0006992015511002479 0.000592279349343583 -0.0009233820641505729 0.00037876579277082656 0.0011014913298340826 -0.0003120933240309084
0.00036292347336264495 0.00025321461731610294 -0.00045258474248130475 -0.0002646549686760763 -6.404464452420873e-05 0.0008712310494872221 0.0003729160148880108 0.0006589073118597824
0.0008174957716751386 0.0005331110575165541 -0.00042818191328687763 0.0008158979021078115 -0.00018023260277233756 -0.00032135540476991133 -0.0003042523245568746 0.001041725957840395
5.730023350363992e-05 -0.00043096678282810715 0.003266831141527787 0.0006767307388827561 0.004082271808246814 -0.00043529580165428043 -0.0005965170314635959 0.00409729110149733
0.022885887911181273 0.001135051188302656 0.0008081823565638837 0.0019084906293830772 0.0003329381297621299 0.0005410742565200305 0.0007480578084620378 0.0014042763848769572
0.0006847626788881119 -0.0003206705648365923 0.00012973837181330504 -0.0005407905079564852 -7.327013596048397e-05 0.0010514512312987808 -0.0006349679010896281 0.0006301243297420836
-0.0002686842608790527 -0.00022822239026917707 0.00026819639611321987 0.0006878837194118171 0.0006974208155166475 0.0007521664809286527 -0.00020978193214529439 0.0017107701798769295
0.0006784790853314475 0.0005670024481925665 0.0009118252927433167 0.0007514197094481285 0.0006193575762193796 0.000750276029194762 0.00035832396753844977 0.0005092830285753204
00000000: 977a 93c6 3a19 5c3f 41c4 ec93 7021 31bf
00000010: 538b d0e7 011b 953f f1e6 ae2c 2c4b 8d3f
00000020: 13e9 eba5 65b9 483f 6368 d0b1 2836 493f
00000030: 7ea1 9ac0 a71e 563f e182 f9ec bb7f 3c3f
00000040: c8ea 6fb6 6d0b 603f b319 2584 00c6 453f
00000050: 8a28 df7f ee42 31bf 831b 8272 f85e 6e3f
00000060: 92d9 9b60 6672 493f 928b bff8 1d38 59bf
00000070: 952c e308 6cec 33bf 0036 1f9b 4580 42bf
00000080: d5bb a367 dfe9 2dbf d0df 8772 ff55 40bf
00000090: 76fa faa9 39f0 4a3f 9618 2eec 105e 373f
000000a0: 30b1 7ac1 a04f 103f 3ecf a76a 5874 6c3f
000000b0: bef1 77e8 96d5 1fbf a21e a015 764a fe3e
000000c0: eeb7 f92a d1ec 40bf 5b3c fa48 d1a4 463f
000000d0: 3d1e 04da a53c 3abf 1ad7 bd17 5308 25bf
000000e0: 1ad7 bd17 5308 25bf 4410 3153 9604 2b3f
000000f0: d8ed e4ab e16b 473f d610 110a bd66 09bf
00000100: 90f1 1b5c a971 483f 90f1 1b5c a971 483f
00000110: 531c a073 52f8 423f ffaa a4a4 a439 463f
00000120: 41c4 ec93 7021 31bf fc9d 6308 7f21 593f
00000130: 01c3 fb49 b7d8 443f 8857 22b5 1577 3bbf
00000140: 7ce0 bcae e7b9 47bf 952c e308 6cec 33bf
00000150: 3754 a557 dd35 4c3f 92de a633 ade9 463f
00000160: 522f c147 2e52 3fbf c999 5d86 8870 d0be
00000170: 770f 21f0 c6e9 393f 3e48 97d2 c0eb 403f
00000180: c9f3 b6e6 c3ce 693f fb8c 0cf7 c6c4 693f
00000190: d545 010e ca3e 613f 627d 35ae 80d5 563f
000001a0: ef6a c9e3 ce05 37bf 3022 668f 4eaf 40bf
000001b0: 8288 e1f1 09d3 40bf a3c1 447c 3540 443f
000001c0: 1b8a 64bc 5c18 4c3f 06e3 90f0 6539 643f
000001d0: bbc3 fe0a 332a 1ebf ca80 9df2 db90 31bf
000001e0: a6e7 da02 7067 43bf 13e2 c0c2 c038 433f
000001f0: fd31 6cfc 8758 2bbf 516e 9958 0206 4a3f
00000200: c746 ec7c 551a e4be 1105 e70d d0c5 36bf
00000210: bf75 d9f1 4452 49bf 531c a073 52f8 423f
00000220: d90f ba15 5fe3 26bf d90f ba15 5fe3 26bf
00000230: a5e8 d34b 2610 493f fee8 20e3 d158 3bbf
00000240: 399e 2f56 4dae 03bf 6f9b addc 1596 3a3f
00000250: 1aaa 63b9 f640 4fbf 14ad d5d9 d128 313f
00000260: 6892 87d2 d00d 40bf 044b f7dd 6355 42bf
00000270: a974 f09b 5e99 413f 50f1 8276 8a41 40bf
00000280: ff43 1d94 6aee 35bf c689 1e74 80ed 463f
00000290: 441f 77cc b439 1dbf 3934 6364 dad4 383f
000002a0: 77cd 53e7 0384 473f 06a8 e687 80c0 4b3f
000002b0: 3ced 797a d718 31bf c273 c6a8 7edc 433f
000002c0: ec65 4539 4e28 423f 66ce 0062 9fa9 4abf
000002d0: e5c8 fc6b 1e47 32bf 1568 cc61 4d5a 40bf
000002e0: fbd0 9e8a 4a79 40bf ca04 3bc5 c8a2 463f
000002f0: 0d39 24f3 6dbb 36bf 1ecb 371f 7b3a 34bf
00000300: 4688 3776 7653 45bf d57a 179b 22ac 22bf
00000310: b7a4 c8c9 c771 c63e 3b4a 9c26 c273 283f
00000320: 075e 1988 c503 29bf c044 3cac b43e 403f
00000330: 7aa1 3622 4f37 433f 0ffe 1e99 d0d1 353f
00000340: 448f 30f9 8e4b 4ebf 0d54 8713 0221 30bf
00000350: 4092 de65 eca5 593f 05cb 2ab0 b9a2 2a3f
00000360: 4e4a d151 4472 2ebf 1ad7 bd17 5308 25bf
00000370: fbd0 9e8a 4a79 40bf e98a 794e 1917 36bf
00000380: 85e6 a6bb 70d6 453f a519 5724 a876 2bbf
00000390: 647a cf9a 4100 4d3f 8fd6 7f70 f7a2 37bf
000003a0: bae8 97e5 c185 2fbf a263 20f5 892d 35bf
000003b0: a5be 78a2 9b19 223f 1c12 75f9 98fc 353f
000003c0: 4791 1442 c7ca 39bf 5da2 70f4 745a 45bf
000003d0: 7494 c53b 2356 543f 8246 45ff c74d 653f
000003e0: e699 170e 417e 3ebf 0344 f392 d934 41bf
000003f0: 6ae4 e292 60da 4abf 66df 4f28 3009 443f
00000400: 15d6 da98 4804 3fbf 6a7a 7f8c 89d4 323f
00000410: 1343 f080 adef 5b3f 06a8 e687 80c0 4b3f
00000420: c54b c2c7 f605 503f 107c fe44 1663 563f
00000430: 2860 8434 e53d 38bf 4d32 a927 7f72 4a3f
00000440: 70af 8ef6 a6c0 473f ac7b 1667 1381 533f
00000450: 2e21 432c df2f 3b3f 081b def7 de83 46bf
00000460: 1e9b afd2 31ee 15bf f970 0018 f162 4e3f
00000470: 8eff fbbc fa41 38bf 8814 d2f6 12b0 463f
00000480: 9320 9c57 3feb 473f f8cd 3a25 3d5a 46bf
00000490: 3977 09ff f121 293f 14d3 d61a a0bf 613f
000004a0: a0dd 8729 4d92 8a3f 3136 aac9 3334 34bf
000004b0: 1d7f 7fbc 1182 4b3f 249e 81a4 fe68 2a3f
000004c0: ca8c a18b c7d0 143f 1972 f6c4 013f 45bf
000004d0: 4208 468a f44b 4d3f 1764 9c26 a951 813f
000004e0: ac6e f7f3 9f7a 803f 68d9 c4c6 6f3e 6d3f
000004f0: 3af4 ef63 7e7c 533f 6fd7 cb51 222c 21bf
00000500: 6d71 3ade b988 32bf 7cb1 2e53 2487 203f
00000510: 77be 4354 e0e7 3d3f d5bb a367 dfe9 2dbf
00000520: 142c ba4f 5b89 38bf 7fa2 56bc 2dad 37bf
00000530: ced3 dcd6 cb34 3ebf 7e4e 2270 ca8e 413f
00000540: bb7b f2f5 a846 733f fba2 a855 7a65 28bf
00000550: 9d82 dd3a c599 3f3f 4ef3 f480 f573 2f3f
00000560: 4fc6 9861 d5e0 443f 289b b101 4972 593f
00000570: 5a6f 4eb9 682e 35bf ff5d 7aa3 3c50 423f
00000580: 66cf 1fb7 52b1 3dbf 8de0 a038 f009 5f3f
00000590: b756 6eaa d7d2 423f 68a5 7b62 dd95 38bf
000005a0: f394 1eb7 4ec5 553f 5467 89c3 8a87 113f
000005b0: b443 19b1 ed9c 983f 2517 c51a 1352 413f
000005c0: 45e4 3720 c098 413f af78 f782 66ff 4e3f
000005d0: 2aeb ee0e aaac 33bf 4543 97f1 6d44 43bf
000005e0: 00c5 73dc b6c8 8d3f 8b92 e9ed b1bf 683f
000005f0: 13fe 3a7b a246 39bf 03e4 deb6 b871 6f3f
00000600: c0a4 92d5 2269 06bf 17b3 4c30 9db4 413f
00000610: 98ff cbe5 53e9 463f 0058 bf37 6668 433f
00000620: f5e8 34e2 e341 4ebf 29f6 5ab1 a2d2 383f
00000630: 6d02 434f fd0b 523f b226 b99e 0e74 34bf
00000640: 3980 f472 d8c8 373f 06d9 0f80 3c98 303f
00000650: 0486 e9aa 1ca9 3dbf 3e75 686f 2c58 31bf
00000660: 5993 679d f6c9 10bf 1402 b26e 6a8c 4c3f
00000670: 2ca2 8d16 7e70 383f 4a1b 82ad 5097 453f
00000680: e2a8 4ecd a6c9 4a3f 2755 5147 0f78 413f
00000690: 1759 7650 b30f 3cbf e008 3967 3fbc 4a3f
000006a0: 73b0 e744 9a9f 27bf 4874 31f4 720f 35bf
000006b0: 2acf a0c8 81f0 33bf b480 e6ba 5011 513f
000006c0: 1a9e 1708 b50a 0e3f 999b e73c 6c3e 3cbf
000006d0: bfe5 429d 0ac3 6a3f 5434 2332 d42c 463f
000006e0: 6f8d 8e7e 92b8 703f 8ae2 703b 0d87 3cbf
000006f0: d75c 2192 f28b 43bf d3ab 8734 52c8 703f
00000700: bb49 79f0 656f 973f 1f39 eaee bf98 523f
00000710: 21e4 3365 867b 4a3f d786 a035 ca44 5f3f
00000720: 87e2 0061 c6d1 353f 055b 441e dcba 413f
00000730: c989 53e9 2983 483f 3524 7249 f601 573f
00000740: c92d daa7 3470 463f 382c b996 f503 35bf
00000750: c641 c120 4c01 213f a032 d8c5 7ab8 41bf
00000760: 5b41 d459 1335 13bf c18d b629 1b3a 513f
00000770: cd9b 412f 7fce 44bf 407c bfb1 dda5 443f
00000780: 8173 091d c69b 31bf d5bb a367 dfe9 2dbf
00000790: b6d9 0dc0 9693 313f 538a 060a 638a 463f
000007a0: 9c89 0ecc 63da 463f dcf6 e637 a1a5 483f
000007b0: 89d3 6113 1d7f 2bbf 2f89 4e7e 7d07 5c3f
000007c0: 0e2b c3bd 7e3b 463f 9df1 617c 5c94 423f
000007d0: 5b8e efe7 f1e0 4d3f 816b f089 5d9f 483f
000007e0: 88f5 6644 8c4b 443f 5d14 1281 c595 483f
000007f0: 48c1 d1b8 ad7b 373f 72af dff9 2cb0 403f
