ses_lin_reg_model/linear_model_weights.npy (npy, 51608 bytes, 1 tensors)

array f8 [6435]
000000 9b cb 9c 9a 0e 44 53 3f fd 52 8b 23 c2 f8 0b bf
       0.0011758940331218829 -5.33518072579949e-05
000010 73 8b dd f3 3a 27 8e 3f 3e e9 5a 92 fd de 85 3f
       0.014723263327771829 0.01067922690287004
000020 34 00 ae 9e e6 9c 41 3f 74 28 66 3a e4 f3 4a 3f
       0.0005375028680276784 0.0008225311656116078
000030 82 46 3d a7 da 01 46 3f 5d fa 8e 94 dd 3f 37 3f
       0.0006716077464068023 0.0003547588317437728
000040 fe 8a 7a b0 22 08 53 3f 90 99 21 67 2d e0 36 3f
       0.0011616076243760594 0.00034905537098097687
000050 80 87 b5 c8 6d 30 d9 3e 03 83 5f ab 75 12 62 3f
       6.005567353058422e-06 0.002206067870233476
000060 c8 7f f5 5b 22 0a 41 3f 31 91 89 fa 41 8d 47 3f
       0.0005200069207766883 0.0007187435304101595
000070 6d bd 48 b2 a0 14 24 bf f4 57 10 5a d5 0d 1a 3f
       -0.00015320264459848677 9.938826271169138e-05
000080 ce d5 f9 8f 6e 2e 16 3f 1f 53 2d 34 c3 46 23 bf
       8.461522883770127e-05 -0.00014706738337602
000090 31 e1 6d cd 39 f5 3f 3f 34 41 c8 f5 bd 0c 3b 3f
       0.0004876390570909438 0.0004127467889541048
0000a0 3f 9a c7 8c 1d 32 15 3f 5e 57 d8 1a 7b 85 61 3f
       8.085542066958109e-05 0.002138843955218058
0000b0 d5 1a ce 72 e8 71 23 3f 30 35 ee 8d 49 f0 2a 3f
       0.00014835321908553711 0.0002055253780465587
0000c0 0b 4d 1b f5 f7 fc 0d 3f e5 fb a0 3c 3e ec 39 3f
       5.719787317350942e-05 0.00039555091337101076
0000d0 6c a7 31 22 83 25 16 bf 09 7d e4 ad 7b 47 f0 be
       -8.44823157863086e-05 -1.552508444390997e-05
0000e0 09 7d e4 ad 7b 47 f0 be 9f 6b 3c a4 47 6b 1a 3f
       -1.552508444390997e-05 0.00010078072324086342
0000f0 ca 36 40 f7 a2 2f 3a 3f d9 2a ce 5c 0a 17 23 3f
       0.00039956787736704065 0.00014564515586486837
000100 83 5e 2a e4 b4 84 3e 3f 83 5e 2a e4 b4 84 3e 3f
       0.00046567360201652685 0.00046567360201652685
000110 98 a1 2e ad 43 34 34 3f fe 15 13 f3 07 6f 3a 3f
       0.0003082909799396959 0.00040334648208459323
000120 fd 52 8b 23 c2 f8 0b bf a2 14 ce 5a c2 4a 4d 3f
       -5.33518072579949e-05 0.0008939217565148325
000130 85 a6 1e c8 69 d3 47 3f 3a 74 b9 6f 16 13 42 3f
       0.0007271067154210475 0.0005515918305253394
000140 2c 7d 77 c8 cf da 45 bf 6d bd 48 b2 a0 14 24 bf
       -0.0006669535222804438 -0.00015320264459848677
000150 e5 8f bf e2 de ac 46 3f 30 32 d6 18 10 6f 4a 3f
       0.0006919945058112524 0.0008066967581484338
000160 cf bc e0 b2 a5 c9 2d bf 3e 2b f6 6d e0 90 07 bf
       -0.00022726199807852071 -4.494843391985311e-05
000170 c2 dd 89 da 45 56 2c 3f cf c2 9c c7 52 c8 33 3f
       0.00021619417863737 0.00030185719480173024
000180 0f ad b4 f8 fe da 67 3f 8e b5 be ae 2e 22 61 3f
       0.0029120426094287953 0.002091494728992677
000190 8f 81 da 06 c3 c1 58 3f fe 2f 51 20 bc a0 52 3f
       0.0015110401686016827 0.0011369549913693429
0001a0 31 e5 a3 b5 1f 2b 18 bf dd 74 4a bc 43 e2 10 3f
       -9.219533004402727e-05 6.440676140547241e-05
0001b0 2d 7f 5e 0e eb 87 34 bf 0a d5 81 a8 1d 69 3c 3f
       -0.0003132771365645822 0.00043351148679644845
0001c0 7e 05 0d fd 68 7d 4a 3f 77 e9 2b 19 69 b3 54 3f
       0.0008084070815145698 0.0012634779311030111
0001d0 6d a8 b6 f6 60 45 1a bf be e2 df 0e 5e 4b 0a bf
       -0.00010021595306023016 -5.015259544899818e-05
0001e0 5d 0e c7 b0 7c f1 14 3f 2d 5a 43 2c b1 62 35 3f
       7.989238310473477e-05 0.00032631707678146515
0001f0 a7 cc 3d b4 27 fa 50 3f 50 03 d1 05 5f cc 42 3f
       0.0010362041220702085 0.0005736793497207269
000200 13 64 3f 06 d5 7b e7 3e 4b 4a 27 df 6e 55 12 bf
       1.1197909948567166e-05 -6.993760306465387e-05
000210 03 fa cd a5 14 92 22 3f 98 a1 2e ad 43 34 34 3f
       0.0001416826443367409 0.0003082909799396959
000220 16 94 7e 6a 5c 24 13 bf 16 94 7e 6a 5c 24 13 bf
       -7.302106916869141e-05 -7.302106916869141e-05
000230 be c6 91 2b 98 ea 3f 3f aa 97 74 65 c2 a1 26 bf
       0.00048700537769895056 -0.00017266748430094558
000240 e5 5d a6 4b 07 5f 3c 3f ae e4 b0 18 58 54 58 3f
       0.00043291023362132384 0.0014849529568563935
000250 66 2e 0d 75 54 dc 43 bf 83 33 d0 4a 29 fd 44 3f
       -0.0006060993565397243 0.0006405307409537018
000260 b7 6f e9 77 7f aa 08 bf 54 21 af 1d fb 03 1b bf
       -4.7046675707845325e-05 -0.00010305614652772926
000270 c3 d3 2a 9a 8d 55 32 3f 5f 92 3b 4a a7 5f 1e 3f
       0.00027975756726600023 0.00011586626584010041
000280 9a 09 6f 4c c1 37 1f 3f 47 37 90 d8 43 5c 3a 3f
       0.00011908643055761337 0.0004022279395606742
000290 f8 ac 35 12 62 79 0f bf 43 f5 1f 53 01 f2 3c 3f
       -6.00321821149999e-05 0.00044167072621788625
0002a0 56 1a d6 73 c7 09 3a 3f b5 44 3c 3f d6 5d 41 3f
       0.00039731139607860255 0.0005299850585932716
0002b0 9c 93 64 c8 10 c0 26 bf db 51 6e 90 31 3e 39 3f
       -0.00017357067935921684 0.0003851767545992848
0002c0 34 bc 04 08 7e 77 43 3f 0a 0f bb 99 4d 86 0c 3f
       0.0005940785777393044 5.4406397990839904e-05
0002d0 84 30 4f 29 59 3d ff be c7 06 28 2d 00 e5 f3 be
       -2.979244398541903e-05 -1.897290605690804e-05
0002e0 97 28 2b 75 fb e7 36 bf d7 5f 11 26 53 71 3b 3f
       -0.00034952057937388245 0.00041874198911306726
0002f0 ac 85 b7 42 3e 25 27 bf 40 5a 53 34 ef 1a 22 bf
       -0.000176586008236374 -0.00013813180900142281
000300 52 eb c8 6a 10 25 24 bf 74 96 12 5d e3 aa 17 bf
       -0.00015369248775861738 -9.028446881361748e-05
000310 d2 d7 77 dc 2f d9 38 3f 8f 46 3b c8 b8 63 28 3f
       0.0003791562889711139 0.00018607741014036282
000320 e8 26 12 f4 4a 77 df 3e 39 87 14 f4 f8 25 46 3f
       7.502076017415592e-06 0.0006759133904419074
000330 0d e3 bb b5 29 28 42 3f dd 70 aa 9b f8 af 27 3f
       0.0005541042005169098 0.00018072042242501296
000340 d0 d9 76 a0 41 94 28 bf 22 68 49 a9 09 90 31 bf
       -0.00018752385242999528 -0.00026798473235134697
000350 91 db 6e 78 9f 58 60 3f 4f b2 59 10 de e4 3c 3f
       0.0019953837067662812 0.0004408876560322615
000360 06 14 5e d4 09 cb 36 3f 09 7d e4 ad 7b 47 f0 be
       0.0003477953908873069 -1.552508444390997e-05
000370 97 28 2b 75 fb e7 36 bf 86 a4 c3 5d 9e 56 12 bf
       -0.00034952057937388245 -6.995526877386264e-05
000380 b2 55 16 a0 29 0b 4c 3f 67 50 65 65 7a 0c 13 3f
       0.0008558228729948407 7.26651863705588e-05
000390 6f f9 85 77 40 cc 3d 3f 3c e5 d3 3d 72 f6 24 bf
       0.00045467924021371555 -0.00015993256139505165
0003a0 35 69 63 f9 1a f0 21 3f 35 b4 52 b7 ec 8f 0c 3f
       0.0001368554046113441 5.4478084089517124e-05
0003b0 2d 8a 76 55 0c 3e 13 3f 28 37 62 26 7e 32 46 3f
       7.340383796487138e-05 0.0006774059263692
0003c0 81 5b 6d b3 f4 d5 0d 3f bc e7 53 32 14 3c 2a 3f
       5.690720575184713e-05 0.0002001547483486114
0003d0 8e 26 60 1d ea f7 4a 3f 2c ff e8 4b 3c fe 60 3f
       0.0008230107439441568 0.002074353949211535
0003e0 6f fb 80 62 18 93 19 bf 60 70 1e fe 7e 7c f4 3e
       -9.75593217171619e-05 1.953727031144025e-05
0003f0 cc 87 30 46 9e de 20 3f 45 ed 32 07 f4 d1 4a 3f
       0.00012870485360943899 0.0008184854072149991
000400 d9 ad 7c 99 a0 f7 30 bf 09 6f b4 fe 5e e2 2f 3f
       -0.0002589003647581446 0.0002432576141949627
000410 35 6f 56 7f c5 57 55 3f b5 44 3c 3f d6 5d 41 3f
       0.0013026646314306504 0.0005299850585932716
000420 13 61 a9 02 51 10 55 3f 29 ec a8 bf cb 98 55 3f
       0.0012856284253271496 0.0013181676610105697
000430 ef 9b 60 3d e5 23 36 bf 4e 18 d0 e9 68 b1 45 3f
       -0.00033783289598193674 0.0006620180389525028
000440 29 56 ab e7 82 e1 4d 3f 96 cd 16 38 7b ec 52 3f
       0.0009118928131452475 0.0011550143538955108
000450 85 1c bd 85 68 78 34 3f 46 d5 4c 32 60 90 33 bf
       0.0003123526746446409 -0.0002985224585246481
000460 52 81 c1 0b f3 d8 28 3f 55 f4 12 63 83 c5 3f 3f
       0.0001895710646549012 0.0004847951668798857
000470 f1 60 8f f1 16 32 21 bf 5a f9 b4 86 e4 88 3a 3f
       -0.00013119249413651822 0.00040488795521644516
000480 92 8c 2f 98 79 f1 36 3f 35 18 69 2f 57 5e ef be
       0.0003500863896858743 -1.4957674904125202e-05
000490 cf 9c 6a 1e 38 b0 1c 3f b8 31 e9 d4 15 6c 5e 3f
       0.00010943739435252956 0.0018568242263824319
0004a0 76 d9 a4 e1 b3 57 84 3f 0c 24 8a db 53 64 16 bf
       0.009932904552084603 -8.541833711651919e-05
0004b0 2f 07 68 a8 d9 f2 4e 3f c0 8a f6 cc 83 dc 28 3f
       0.0009444773466500185 0.00018967732328885843
0004c0 91 33 c4 6b 8a 79 24 3f 7a 08 db b8 9f 27 ea 3e
       0.00015621008595481355 1.2471571405274008e-05
0004d0 a6 00 e1 8c 78 f6 3f 3f 79 f9 65 82 f3 64 77 3f
       0.0004877132713581124 0.00571150894972871
0004e0 49 c1 92 c9 4f a7 7b 3f 24 f4 1b c9 f6 d0 67 3f
       0.00675135771705044 0.0029072589903749325
0004f0 9a 82 7f 95 51 e6 4a 3f 43 fb e1 6c 05 1b 1a 3f
       0.0008209131583463869 9.958477605385729e-05
000500 58 51 36 fb 8a a7 f5 be 42 fc 38 1e bc c7 47 3f
       -2.0651306568435e-05 0.0007257145447922069
000510 e5 69 3e e0 4f ee 3c 3f ce d5 f9 8f 6e 2e 16 3f
       0.00044145059677594265 8.461522883770127e-05
000520 c3 f6 97 c8 78 4b 2b bf 28 ad 25 91 64 0d 06 bf
       -0.0002082428875808587 -4.206145435400383e-05
000530 c7 6a d7 9c 41 74 39 bf bf ab fc 1b 51 9c 3c 3f
       -0.00038839914199477156 0.00043656330307112115
000540 ac c5 a2 11 f5 57 6c 3f 9f 89 25 67 6d 2a e3 be
       0.003459910059142776 -9.138933113110601e-06
000550 cb 96 e7 80 b9 df 34 3f c8 ff 4b 90 bb 3b 43 3f
       0.00031851080794207943 0.0005869546735937032
000560 07 9f 27 85 ad 75 43 3f 68 ca 94 bc 45 30 61 3f
       0.0005938622728622619 0.002098213390717963
000570 36 27 ca e9 3a 73 27 bf 00 4d bd d9 aa fa 40 3f
       -0.00017891019969722984 0.0005181631308723011
000580 ff d1 70 6a ab c7 e8 be d1 84 c2 60 c6 fc 52 3f
       -1.1816005395550755e-05 0.0011588990483136117
000590 08 22 af ad c4 89 34 3f 37 e3 07 0b 24 e1 0e 3f
       0.00031338741035516525 5.88978886106373e-05
0005a0 73 d6 cf 95 cd d8 4e 3f 2b dc 26 82 42 1b 4d 3f
       0.0009413722833630636 0.000888259386832573
0005b0 d5 fb 45 9e f7 3f 90 3f 3c e3 3a 3e 3e 78 32 3f
       0.015869015727272135 0.00028182525259583583
0005c0 a3 d1 d0 8e dd 6f 47 3f 2a 9b 66 be f2 3f 41 3f
       0.0007152396989398745 0.0005264220497352746
0005d0 1c 7f 24 d6 34 8f 25 bf d1 b7 ea 81 6c 79 2d bf
       -0.00016448516823518936 -0.0002248711543492697
0005e0 ee 3d c9 e4 4f 42 85 3f 37 e0 1a 7f 63 18 63 3f
       0.010380386514184683 0.002330965355977123
0005f0 69 2f b2 1b 2e 1c e1 be ce 81 c8 ae 5e 0e 67 3f
       -8.15872123485053e-06 0.0028144692680742494
000600 03 16 48 13 2a 36 20 bf a6 7f fb 86 3c f2 48 3f
       -0.00012368453612070237 0.0007612987082801128
000610 f8 c7 a5 39 4d 85 3f 3f 33 15 25 50 d1 af 34 3f
       0.0004809678590823592 0.00031565532858153776
000620 f7 e0 b5 94 11 2b 3b bf 6d 14 44 0e 9b 37 32 3f
       -0.00041455439778516297 0.00027797256031220665
000630 62 b8 10 09 dc d8 51 3f de 86 4f 9f 55 30 22 bf
       0.0010893009932817711 -0.00013876958078556147
000640 62 f4 57 71 ac 3d 31 3f 63 1a 84 9c d1 e1 34 3f
       0.0002630754473498862 0.0003186356302794844
000650 b4 8b a7 c4 09 96 23 bf 24 7a 86 ce 21 8c 16 3f
       -0.0001494299816179025 8.601147022211563e-05
000660 28 19 5a b7 72 5f 09 bf 43 b8 03 31 e0 85 39 3f
       -4.83948596583953e-05 0.0003894493429602611
000670 7c 9f cf d0 5d df 25 3f 01 ac a5 c5 b0 07 38 3f
       0.00016687412462989745 0.00036666932796575186
000680 38 64 42 94 04 57 43 3f 85 fa 73 d8 db 07 40 3f
       0.0005902073248932388 0.0004892180885745645
000690 0a 7a 07 a1 88 1a e8 3e 53 80 f8 a3 b0 13 44 3f
       1.1493514677715834e-05 0.0006126987936490115
0006a0 7c da 0a b1 53 4a 11 3f c9 4c 73 04 b7 58 22 bf
       6.59574109346059e-05 -0.00013997301196031476
0006b0 e0 03 3e 6e d0 b6 14 bf 44 9b ca 14 1a d1 43 3f
       -7.901808890943508e-05 0.0006047608709039772
0006c0 de 84 58 13 b5 f1 4e 3f 6b cb d4 11 4b 1c 29 bf
       0.0009443411024145051 -0.0001915780675659466
0006d0 6c d9 38 2e 1c 12 63 3f 52 3a b6 dd ff 6b 52 3f
       0.0023279714967216394 0.0011243818943033235
0006e0 70 f1 26 21 7a f7 68 3f 52 e3 4b 52 c2 e5 10 3f
       0.0030476937619978092 6.445883316165177e-05
0006f0 b2 eb 12 bb 7a 4b 48 3f 24 68 a8 93 86 17 6f 3f
       0.0007414197226788182 0.0037953976109408472
000700 28 92 3b 87 8a 16 91 3f 55 f4 fc a0 6d ca 4b 3f
       0.016687550071667584 0.0008481059357802282
000710 22 a7 61 e1 34 c8 3b 3f 6d 42 4c 48 fa 8f 5a 3f
       0.0004239205458192887 0.0016212410129733637
000720 c3 a4 40 49 fb 8b 4a 3f 3a b2 91 fb 43 3f 42 3f
       0.0008101441367262197 0.0005568582483995229
000730 c8 f3 e0 b7 d0 98 44 3f 09 14 23 64 5a 24 59 3f
       0.0006285685665329216 0.0015345461584257444
000740 e1 a1 c3 51 0b 4a 4e 3f 65 76 c9 96 63 e6 10 3f
       0.0009243541021791113 6.446822016800134e-05
000750 85 c7 6e b3 ca c5 39 3f 7d 75 06 75 22 fb 3a bf
       0.00039325903656638905 -0.00041169730413933415
000760 71 50 54 10 60 ad 20 bf 7e ec 3b a4 14 fa 44 3f
       -0.00012723729756969644 0.0006401634968534878
000770 df 1a a8 72 e4 13 15 bf 3f ea 82 35 3f 3c 3b 3f
       -8.040506205740258e-05 0.0004155783003728964
000780 47 b6 44 04 f0 35 0c 3f ce d5 f9 8f 6e 2e 16 3f
       5.38076278949582e-05 8.461522883770127e-05
000790 30 80 7b e9 1f 23 2a 3f ee 45 ea fe 83 7a 3f 3f
       0.0001994110541465601 0.00048032496025837603
0007a0 3e eb 2e 26 59 43 3c 3f 2d 65 a4 93 c6 f3 44 3f
       0.0004312603616047245 0.0006394118893552674
0007b0 b7 fe 09 0f 0f 9b ec be c9 3e f4 94 d8 4b 56 3f
       -1.3640259994617818e-05 0.0013608565385005314
0007c0 f6 b0 37 63 48 40 38 3f 6f 44 0e 58 b3 44 3a 3f
       0.00037004248880979863 0.00040082338824116206
0007d0 18 00 4b 87 73 5f 41 3f 5d f9 c3 cb 46 25 40 3f
       0.0005301775077768437 0.0004927249606508189
0007e0 bd bd 0e 45 68 b2 35 3f 1f ab 7f 4b b9 90 3e 3f
       0.0003310684742769651 0.00046638988305740427
0007f0 42 78 d8 c7 4c 32 37 3f 6e 2c e5 b1 f3 b6 37 3f
       0.00035395025756368795 0.0003618569334277792
